…
============================================================
DIFFUSION MODEL SUMMARY
============================================================

Device: cpu
Prediction Type: x0
Schedule Type: cosine
Time Steps: 1000
Sinusoidal Time Embedding Dim: 256
MLP Time Embedding Dim: 16
EMA Enabled: True

--------------------------------------------------
Total Trainable Parameters: 42,488
--------------------------------------------------

============================================================
Function Approximator
============================================================
DiT(
  (x_embedder): PatchEmbed(
    (proj): Conv2d(4, 16, kernel_size=(16, 16), stride=(16, 16))
    (norm): Identity()
  )
  (blocks): ModuleList(
    (0-2): 3 x TransformerBlock(
      (norm1): LayerNorm((16,), eps=1e-06, elementwise_affine=False)
      (attn): Attention(
        (qkv): Linear(in_features=16, out_features=48, bias=True)
        (q_norm): Identity()
        (k_norm): Identity()
        (attn_drop): Dropout(p=0.0, inplace=False)
        (norm): Identity()
        (proj): Linear(in_features=16, out_features=16, bias=True)
        (proj_drop): Dropout(p=0.0, inplace=False)
      )
      (norm2): LayerNorm((16,), eps=1e-06, elementwise_affine=False)
      (mlp): Mlp(
        (fc1): Linear(in_features=16, out_features=32, bias=True)
        (act): GELU(approximate='tanh')
        (drop1): Dropout(p=0, inplace=False)
        (norm): Identity()
        (fc2): Linear(in_features=32, out_features=16, bias=True)
        (drop2): Dropout(p=0, inplace=False)
      )
    )
  )
  (final_layer): FinalLayer(
    (norm_final): LayerNorm((16,), eps=1e-06, elementwise_affine=False)
    (linear): Linear(in_features=16, out_features=1024, bias=True)
  )
)
--------------------------------------------------
Number of Parameters: 40,288
--------------------------------------------------

============================================================
Time Embedding MLP
============================================================
Sequential(
  (0): Linear(in_features=256, out_features=8, bias=True)
  (1): SiLU()
  (2): Linear(in_features=8, out_features=16, bias=True)
)
--------------------------------------------------
Number of Parameters: 2,200
--------------------------------------------------

